Model: "sequential"
_________________________________________________________________
 Layer (type)                Output Shape              Param #
=================================================================
 conv2d (Conv2D)             (None, 28, 28, 75)        750

 batch_normalization (BatchN  (None, 28, 28, 75)       300
 ormalization)

 max_pooling2d (MaxPooling2D  (None, 14, 14, 75)       0
 )

 conv2d_1 (Conv2D)           (None, 14, 14, 50)        33800

 dropout (Dropout)           (None, 14, 14, 50)        0

 batch_normalization_1 (Batc  (None, 14, 14, 50)       200
 hNormalization)

 max_pooling2d_1 (MaxPooling  (None, 7, 7, 50)         0
 2D)

 conv2d_2 (Conv2D)           (None, 7, 7, 25)          11275

 batch_normalization_2 (Batc  (None, 7, 7, 25)         100
 hNormalization)

 max_pooling2d_2 (MaxPooling  (None, 4, 4, 25)         0
 2D)

 flatten (Flatten)           (None, 400)               0

 dense (Dense)               (None, 512)               205312

 dropout_1 (Dropout)         (None, 512)               0

 dense_1 (Dense)             (None, 24)                12312

=================================================================
Total params: 264,049
Trainable params: 263,749
Non-trainable params: 300
_________________________________________________________________
Epoch 1/20
215/215 [==============================] - 58s 264ms/step - loss: 1.0378 - accuracy: 0.6724 - val_loss: 3.4574 - val_accuracy: 0.1235 - lr: 0.0010
Epoch 2/20
215/215 [==============================] - 49s 228ms/step - loss: 0.2070 - accuracy: 0.9313 - val_loss: 0.9397 - val_accuracy: 0.7006 - lr: 0.0010
…
